…
ml_natural_scaled,random_forest_1,RandomForestClassifier(),100.0,98.40843324,[[2332   61] [  16 2429]],98.36743129,[[2321   69] [  10 2439]]
ml_natural_scaled,naive_bayes_1,GaussianNB(),92.55942129,92.29020256,[[2083  310] [  63 2382]],92.78776607,[[2094  296] [  53 2396]]
ml_natural_scaled,decision_tree_1,DecisionTreeClassifier(),100.0,97.06490285,[[2327   66] [  76 2369]],96.96218227,[[2315   75] [  72 2377]]
ml_natural_scaled,knn_1,KNeighborsClassifier(n_neighbors=2),98.84946607,96.21744523,[[2320   73] [ 110 2335]],96.15623063,[[2307   83] [ 103 2346]]
dense_pca_scaled,dense_1,"Sequential(  (0): Linear(in_features=1, out_features=128, bias=True)  (1): ReLU()  (2): Linear(in_features=128, out_features=1, bias=True)  (3): Sigmoid())",88.23529412,88.73501447,[[1951  442] [ 103 2342]],88.63401529,[[1956  434] [ 116 2333]]
dense_pca_scaled,dense_2,"Sequential(  (0): Linear(in_features=2, out_features=128, bias=True)  (1): ReLU()  (2): Linear(in_features=128, out_features=1, bias=True)  (3): Sigmoid())",96.07843137,91.33939644,[[2088  305] [ 114 2331]],91.48584418,[[2084  306] [ 106 2343]]
dense_pca_scaled,dense_3,"Sequential(  (0): Linear(in_features=3, out_features=128, bias=True)  (1): ReLU()  (2): Linear(in_features=128, out_features=1, bias=True)  (3): Sigmoid())",98.03921569,96.40347251,[[2253  140] [  34 2411]],95.57759868,[[2239  151] [  63 2386]]
dense_pca_scaled,dense_4,"Sequential(  (0): Linear(in_features=4, out_features=128, bias=True)  (1): ReLU()  (2): Linear(in_features=128, out_features=1, bias=True)  (3): Sigmoid())",98.03921569,96.73418768,[[2269  124] [  34 2411]],96.40421575,[[2259  131] [  43 2406]]
dense_pca_scaled,dense_5,"Sequential(  (0): Linear(in_features=5, out_features=128, bias=True)  (1): ReLU()  (2): Linear(in_features=128, out_features=1, bias=True)  (3): Sigmoid())",98.03921569,97.25093014,[[2292  101] [  32 2413]],96.94151684,[[2283  107] [  41 2408]]
dense_pca_scaled,dense_6,"Sequential(  (0): Linear(in_features=6, out_features=128, bias=True)  (1): ReLU()  (2): Linear(in_features=128, out_features=1, bias=True)  (3): Sigmoid())",96.07843137,98.13972716,[[2309   84] [   6 2439]],97.85079562,[[2294   96] [   8 2441]]
dense_pca,dense_1,"Sequential(  (0): Linear(in_features=1, out_features=128, bias=True)  (1): ReLU()  (2): Linear(in_features=128, out_features=1, bias=True)  (3): Sigmoid())",88.23529412,91.19470856,[[2064  329] [  97 2348]],91.36185162,[[2062  328] [  90 2359]]
dense_pca,dense_2,"Sequential(  (0): Linear(in_features=2, out_features=128, bias=True)  (1): ReLU()  (2): Linear(in_features=128, out_features=1, bias=True)  (3): Sigmoid())",90.19607843,91.75279041,[[2089  304] [  95 2350]],91.75449473,[[2084  306] [  93 2356]]
dense_pca,dense_3,"Sequential(  (0): Linear(in_features=3, out_features=128, bias=True)  (1): ReLU()  (2): Linear(in_features=128, out_features=1, bias=True)  (3): Sigmoid())",92.15686275,96.09342704,[[2252  141] [  48 2397]],95.90824551,[[2236  154] [  44 2405]]
dense_pca,dense_4,"Sequential(  (0): Linear(in_features=4, out_features=128, bias=True)  (1): ReLU()  (2): Linear(in_features=128, out_features=1, bias=True)  (3): Sigmoid())",98.03921569,96.19677553,[[2259  134] [  50 2395]],96.01157264,[[2248  142] [  51 2398]]
dense_pca,dense_5,"Sequential(  (0): Linear(in_features=5, out_features=128, bias=True)  (1): ReLU()  (2): Linear(in_features=128, out_features=1, bias=True)  (3): Sigmoid())",94.11764706,96.5481604,[[2249  144] [  23 2422]],96.42488117,[[2238  152] [  21 2428]]
dense_pca,dense_6,"Sequential(  (0): Linear(in_features=6, out_features=128, bias=True)  (1): ReLU()  (2): Linear(in_features=128, out_features=1, bias=True)  (3): Sigmoid())",100.0,97.39561802,[[2293  100] [  26 2419]],97.2928291,[[2278  112] [  19 2430]]
dense_natural,dense_1,"Sequential(  (0): Linear(in_features=7, out_features=128, bias=True)  (1): ReLU()  (2): Linear(in_features=128, out_features=1, bias=True)  (3): Sigmoid())",100.0,96.89954527,[[2266  127] [  23 2422]],96.67286629,[[2251  139] [  22 2427]]
dense_natural_scaled,dense_1,"Sequential(  (0): Linear(in_features=7, out_features=128, bias=True)  (1): ReLU()  (2): Linear(in_features=128, out_features=1, bias=True)  (3): Sigmoid())",100.0,98.55312112,[[2335   58] [  12 2433]],98.34676586,[[2322   68] [  12 2437]]
